checkpoint.pth (torch_old, 28333 bytes, 6 tensors)

fc1.weight f4 [64, 37]
0	0xbc7874b6	-0.015164545
1	0xbcfd6663	-0.03093261
2	0xbd21cb84	-0.03950073
3	0xbe32bf6c	-0.17455834
4	0xbe775d2d	-0.24156637
5	0xbcecc645	-0.028903136
6	0x3df7f186	0.12106614
7	0x3db14694	0.0865604
8	0xbd720868	-0.059090048
9	0xbe1ee84f	-0.15518306
10	0xbd7a2c64	-0.06107749
11	0xbd6ac828	-0.05731979
12	0xbe626f83	-0.22112851
13	0xbb6542e9	-0.0034982509
14	0x3db90b72	0.09035386
15	0x3d9237e1	0.07139564
16	0x3d53d776	0.05171915
17	0xbcff91ac	-0.031197391
18	0xbe25bebc	-0.1618604
19	0x3d86b3af	0.06577241
20	0x3e0e2d09	0.13884367
21	0x3e10222f	0.1407554
22	0xbd565829	-0.05233017
23	0x3d13b8b3	0.036064815
24	0x3cc455c1	0.023966672
25	0x3e05b5da	0.13057652
26	0xbcec4b23	-0.028844422
27	0xbdd7e8c7	-0.10542446
28	0xbeda57f9	-0.42645243
29	0xbe562343	-0.20911889
30	0xbdfd127b	-0.123570405
31	0x3e43a016	0.19104037
32	0x3dbb2ac1	0.09139014
33	0xbe93f07b	-0.2889441
34	0x3e2fe0ee	0.17175648
35	0xbd9dcbc1	-0.077048786
36	0xbc5efe85	-0.013610487
37	0x3e437216	0.19086489
38	0x3d6af308	0.05736068
39	0x3db1a427	0.08673888
40	0xbda8a8f3	-0.082353495
41	0xbe8e4c76	-0.2779271
42	0x3db85e6d	0.09002385
43	0xbe40eaa4	-0.18839508
44	0xbd9ab9cd	-0.0755497
45	0xbccf2a62	-0.025288764
46	0xbf03fc7e	-0.5155715
47	0x3d8fc7a4	0.070205
48	0xbda0d5e2	-0.07853295
49	0x3d755a18	0.059900373
50	0x3e292cdb	0.16521017
51	0x3e96825b	0.29396328
52	0x3d977979	0.07396216
53	0xbe3d040a	-0.18458572
54	0x3e0bb568	0.1364342
55	0x3e362b47	0.17789946
56	0x3d9910cb	0.07473906
57	0xbda435d8	-0.080180824
58	0xbd40e4ee	-0.047093324
59	0xbd970d2a	-0.07375558
60	0xbdd130bb	-0.10214373
61	0x3d415bdf	0.047206756
62	0xba80d2ff	-0.0009828507
63	0x3d2b07d6	0.04175552
64	0xbd9a4e7c	-0.07534501
65	0xbc8187d5	-0.01581184
66	0x3d83681e	0.06416343
67	0xbae0f09e	-0.0017161553
68	0x3e240634	0.16017991
69	0x3e5c4321	0.21509983
70	0xbd50a9f5	-0.050943334
71	0x3e757510	0.23970437
72	0x3d5aa8cf	0.053383645
73	0x3d29e0f4	0.041474298
74	0xbc5d2dc0	-0.013499677
75	0x3d6e00d2	0.05810625
76	0x3e03da83	0.12876324
77	0x3e5b38d4	0.21408397
78	0x3e947fe3	0.2900382
79	0xbf041cac	-0.5160625
80	0x3e373238	0.1789025
81	0x3e563c1c	0.20921367
82	0xbe1fbf1a	-0.15600243
83	0xbe6b54f8	-0.22981632
84	0xbd549f9d	-0.05191003
85	0x3d8b941f	0.06815361
86	0x3d408192	0.046998568
87	0xbe063204	-0.13105017
88	0x3cb8d3f0	0.022561997
89	0xbe01261e	-0.12612197
90	0x3dddd67a	0.10831924
91	0x3d8278bb	0.06370684
92	0x3e4800a6	0.19531497
93	0x3eb61646	0.35563868
94	0xbdce6126	-0.10077123
95	0xbe1a5802	-0.15072635
96	0x3cbfd284	0.023415811
97	0x3cf0aa65	0.029378125
98	0x3c7ee6f5	0.015557994
99	0xbec65e6c	-0.38743913
100	0x3e4de658	0.201074
101	0x3c417031	0.011806534
102	0x3e501f0b	0.20324342
103	0xbe464467	-0.19362031
104	0xbe564c41	-0.20927526
105	0x3c8644ef	0.016390292
106	0x3ba15649	0.004923616
107	0xbe3f6188	-0.18689549
108	0x3d9f1100	0.07766914
109	0xbca52c18	-0.020162627
110	0xbb4ab247	-0.0030929015
111	0x3d99e7cf	0.07514917
112	0xbcaba08f	-0.020950584
113	0x3e624a55	0.22098668
114	0xbd0876be	-0.033316366
115	0xbf032d4e	-0.51241004
116	0xbdb6e751	-0.08930839
117	0xbe321be7	-0.17393456
118	0x3e1394de	0.14412257
119	0x3dd184fa	0.102304414
120	0xbe7472a9	-0.23871864
121	0x3de05cd8	0.109552085
122	0xbe219b09	-0.15781797
123	0x3d2a5fcf	0.041595276
124	0xbe41521b	-0.18878977
125	0xbde87a25	-0.11351422
126	0x3d0d5a47	0.034509923
127	0xbdfd32ae	-0.12363182
128	0xbda38481	-0.079842575
129	0xbeaebbd8	-0.34127688
130	0xbf10e1d5	-0.5659459
131	0x3de0f2f6	0.10983841
132	0x3da4c6a1	0.08045698
133	0xbdaf09d9	-0.085468
134	0xbcc10929	-0.023563938
135	0xbc22b50c	-0.00993086
136	0xbc7c7234	-0.0154080875
137	0xbd67ec62	-0.056621917
138	0x3dcbec25	0.0995715
139	0x3d7fed45	0.062482137
140	0xbdf9b991	-0.12193597
141	0x3e431c0e	0.19053671
142	0x3e6d00ad	0.23144789
143	0xbd483e26	-0.048887394
144	0xbe8c5fa5	-0.2741672
145	0xbf4cc878	-0.7999339
146	0x3d380747	0.044928815
147	0xbc0286c5	-0.007966702
148	0xbdc86680	-0.09785175
149	0xbea82c3a	-0.32846242
150	0xbe13a81e	-0.144196
151	0xbc9e1654	-0.019297756
152	0x3e247dca	0.1606361
153	0x3dfe9442	0.12430622
154	0x3d9935c6	0.074809596
155	0xbecd5009	-0.40100124
156	0xbdb28c41	-0.087181576
157	0xbea4a116	-0.3215415
158	0xbc263d71	-0.010146485
159	0xbe688f54	-0.22710925
160	0x3cfc288b	0.030781051
161	0xbe603b59	-0.2189764
162	0xbe9d735e	-0.3075208
163	0xbe5d5f5d	-0.2161841
164	0xbd9ad75d	-0.075606085
165	0x3d6d8686	0.05798962
166	0xbdb51aa6	-0.088429734
167	0x3dc3ee1d	0.09566901
168	0xbce8684f	-0.02837005
169	0xbe05b805	-0.13058479
170	0x3d8235e6	0.063579366
171	0xbe6cc4bb	-0.23121922
172	0xbe647955	-0.2231191
173	0x3df186c3	0.11793282
174	0xbdc38dce	-0.095485315
175	0xbd87dc99	-0.066338725
176	0xbd822e0e	-0.063564405
177	0xbed6196e	-0.41816276
178	0x3e1bd80b	0.15219133
179	0xbe427e43	-0.18993478
180	0xbd1499ad	-0.03627937
181	0xbc3f87b1	-0.011690066
182	0xbdf59ede	-0.11993192
183	0xbdd8cae6	-0.10585575
184	0x3c01bf76	0.007919183
185	0x3d6e1725	0.05812754
186	0xbd5e22f3	-0.05423255
187	0xbadf2df0	-0.001702724
188	0xbe83fe3d	-0.25779906
189	0x3dfec184	0.12439254
190	0x3d8c0017	0.06835955
191	0x3e45e5e9	0.19325985
192	0xbe14eb2f	-0.1454284
193	0x3ad1684e	0.001597652
194	0xbefcadcc	-0.49351346
195	0xbe00df33	-0.12585144
196	0x3dc55bb0	0.09636629
197	0xbe6bbff4	-0.23022443
198	0xbd1ff0ed	-0.039048124
199	0x3daf7203	0.08566668
200	0x3ca4c582	0.02011371
201	0x3d8676d2	0.06565632
202	0xbdc3f3aa	-0.095679596
203	0xbe17bd54	-0.14818317
204	0x3d1cc28c	0.03827147
205	0x3d457f4d	0.048217107
206	0xbd42cb7d	-0.047557343
207	0x3dcc263c	0.0996823
208	0x3e07dac4	0.13267046
209	0x3e205291	0.15656497
210	0xbd7bc223	-0.06146444
211	0x3c7da6da	0.015481675
212	0x3d5a29f2	0.05326266
213	0xbdd96fe5	-0.10617045
214	0x3e4f3a5a	0.20237103
215	0xbce2a35b	-0.027665785
216	0xbc1d6279	-0.009605997
217	0xbd08446e	-0.033268385
218	0x3e096719	0.13418235
219	0xbf3a2a3a	-0.7272068
220	0x3d4a75a5	0.0494286
221	0x3c87dd85	0.01658512
222	0xbd67c9e6	-0.05658903
223	0x3d33fa94	0.04394014
224	0xbe337e7f	-0.17528723
225	0xbb2e7c3e	-0.0026624347
226	0xbdbb356f	-0.09141051
227	0xbe0fade4	-0.14031178
228	0xbdf8cc95	-0.12148396
229	0x3d194323	0.037417542
230	0xbd3049ec	-0.043039247
231	0x3e8b9fa0	0.27270222
232	0x3cab204e	0.020889428
233	0xbe16637a	-0.14686385
234	0x3e3ac05f	0.18237446
235	0xbc715af5	-0.0147311585
236	0x3ea8810c	0.32910955
237	0xbe6cabea	-0.23112455
238	0xbc99a071	-0.018753262
239	0x3d72f009	0.059310947
240	0xbde94476	-0.11390011
241	0x3d1e8462	0.03870047
242	0xbd89153b	-0.066935025
243	0xbde6296b	-0.112383686
244	0xbcc6678b	-0.024219295
245	0xbcd51f9f	-0.026016055
246	0x3e455379	0.19270124
247	0xbeb95142	-0.36194807
248	0xbd4f7d54	-0.05065663
249	0xbd39b06c	-0.045334265
250	0x3d4d1eaf	0.05007809
251	0xbd791005	-0.060806293
252	0x3d7560d9	0.059906814
253	0xbe644dbe	-0.22295281
254	0xbe0a4a24	-0.13504845
255	0x3df3a0ea	0.11895926

fc1.bias f4 [64]
0	0x3e0105ed	0.12599917
1	0xbc849866	-0.01618595
2	0xbe47f5f2	-0.19527414
3	0xbd94324a	-0.072361544
4	0x3e0f4ce1	0.1399417
5	0xbd8d58b0	-0.069016814
6	0xbe2d909f	-0.169497
7	0x3d106bdc	0.035259113
8	0x3d86a8c8	0.06575161
9	0xbe58904a	-0.21148792
10	0x3df462ba	0.11932893
11	0x3e3e1874	0.18564016
12	0x3e9b6d62	0.3035689
13	0x3e1e614f	0.15466808
14	0xbdaaee0a	-0.083461836
15	0xbdb10338	-0.08643192
16	0xbbaa0d5c	-0.005189581
17	0x3d1b7409	0.037952457
18	0x3d61a88a	0.055092372
19	0xbe412a20	-0.18863726
20	0xbdb67bb3	-0.089103125
21	0x3d57d130	0.05268973
22	0x3c5f7965	0.013639783
23	0xbdc51207	-0.09622579
24	0xbe0d5e0d	-0.13805409
25	0x3d13a1c0	0.03604293
26	0xbda3915d	-0.0798671
27	0xbe2af7f1	-0.16696145
28	0x3dd9eb2a	0.10640557
29	0x3e12e34c	0.1434452
30	0xbc75fee6	-0.015014386
31	0xbe3cafef	-0.18426488
32	0x3e1c7200	0.15277863
33	0xbcd592b6	-0.026070934
34	0xbd15abe1	-0.03654087
35	0x3d30f6b7	0.043204036
36	0xbd8ce066	-0.06878738
37	0x3c14e33d	0.009087381
38	0xbd06d4b9	-0.032917712
39	0xbd633389	-0.05546907
40	0xbd9c1355	-0.07620875
41	0x3ce2f051	0.027702482
42	0xbe2d434b	-0.16920201
43	0x3dc555c0	0.09635496
44	0xbb8dc5b7	-0.004326548
45	0xbdd5c938	-0.1043877
46	0x3df935d3	0.12168469
47	0xbddee882	-0.10884191
48	0xbdd9bf05	-0.10632137
49	0x3d79ad79	0.060956452
50	0xbe0f8a5b	-0.14017622
51	0x3db7f7a0	0.089827776
52	0x3d6c86aa	0.057745613
53	0xbd8b6d3c	-0.06807944
54	0xbe616d0e	-0.22014257
55	0x3d22a7ae	0.039710693
56	0x3dd874a3	0.10569122
57	0xbdf47cfe	-0.11937903
58	0xbdc40446	-0.095711276
59	0xbe039c0d	-0.12852497
60	0xbc811006	-0.01575471
61	0x3de780bd	0.11303852
62	0x3d9762eb	0.07391914
63	0xbc3b96ee	-0.011449559

fc2.weight f4 [64, 64]
0	0xbda6bbb3	-0.081412695
1	0x3ca7ed8f	0.020499019
2	0x3e0ce621	0.13759662
3	0x3c293b16	0.010329029
4	0x3e04318f	0.1290953
5	0xbd208626	-0.039190434
6	0xbc056491	-0.008141653
7	0xbd7ca134	-0.061677173
8	0x3d8813ce	0.066444024
9	0x3d6f0e89	0.05836347
10	0x3d4f7c82	0.05065585
11	0xbe3132c6	-0.17304525
12	0xbd4a6520	-0.049412847
13	0x3d5d5982	0.05404044
14	0xbdae1006	-0.0849915
15	0x3d454a0f	0.04816633
16	0xbe09655c	-0.13417572
17	0xbf0c143f	-0.54718393
18	0x3d9e2757	0.07722347
19	0x3be4ca96	0.006982158
20	0x3d93bf5e	0.07214235
21	0x3d94925f	0.072544806
22	0x3ede9c7b	0.4347876
23	0xbe96aa31	-0.2942672
24	0xbe142bcf	-0.14469837
25	0x3e141385	0.14460571
26	0x3e5588b2	0.20852926
27	0x3d5fd7c1	0.05464912
28	0xbe0c3145	-0.1369067
29	0xbe74e2c3	-0.23914628
30	0x3de83b9d	0.11339495
31	0xbddcf373	-0.10788622
32	0x3da5c0bf	0.08093404
33	0x3d8d8179	0.069094606
34	0x3cfe691e	0.031055983
35	0x3e0f0364	0.13966137
36	0xbeedf66b	-0.46477064
37	0x3d1e2b1a	0.038615324
38	0x3cc48558	0.023989365
39	0xbd929388	-0.071570456
40	0xbeb33afb	-0.35005936
41	0xbd7c67ff	-0.061622616
42	0x3e44cc25	0.192185
43	0x3d4fd250	0.05073768
44	0x3d325f29	0.043547783
45	0xbe2309fb	-0.15921776
46	0xbe2fd909	-0.17172636
47	0x3ebe1d2b	0.37131628
48	0x3d6dd246	0.05806186
49	0xb92e072c	-0.00016596605
50	0x3d2668b5	0.0406272
51	0xbde92f23	-0.11385944
52	0xbe7fa5c6	-0.24965581
53	0x3eef9671	0.46794465
54	0xbe2ca275	-0.16858847
55	0x3c863cc2	0.016386393
56	0xbe8d0b54	-0.27547705
57	0xbdf1ba93	-0.11803164
58	0xbe2b9433	-0.16755752
59	0xbdd0e3a9	-0.10199673
60	0x3e4c13fe	0.19929501
61	0x3d3f9778	0.04677531
62	0xbdeee9c2	-0.116656795
63	0xbeabf307	-0.33583853
64	0xbda6d9be	-0.08147
65	0x3e22001c	0.15820354
66	0xbe64bb6a	-0.22337118
67	0x3e4fdaca	0.20298305
68	0x3cf75779	0.030193077
69	0x3cf96ce3	0.030447429
70	0xbec45d36	-0.38352364
71	0xbe1f8c34	-0.15580827
72	0xbe48e5c4	-0.19618899
73	0xbde7bfb4	-0.11315861
74	0xbde0df7e	-0.10980128
75	0x3ecc46cf	0.39897773
76	0xbe6b9a64	-0.23008114
77	0x3dee0233	0.11621513
78	0xbc86911a	-0.016426612
79	0x3e16209c	0.14660877
80	0xbd7792b5	-0.060442645
81	0xbe540b34	-0.20707399
82	0xbddd25b0	-0.10798204
83	0xbcb83969	-0.022488313
84	0x3d53c59e	0.051702134
85	0x3da742ce	0.08167039
86	0xbe201a16	-0.15634951
87	0xbd42814b	-0.047486585
88	0xbdfcdc36	-0.123466894
89	0x3e30bb95	0.17259057
90	0xbe890a43	-0.26765642
91	0xbdfc1164	-0.123080045
92	0x3e11eabb	0.14249699
93	0xbd9a8ddb	-0.07546588
94	0xbdfb04b6	-0.12256758
95	0xbd83a128	-0.064272225
96	0xbe5243ab	-0.20533626
97	0xbaa5fb8e	-0.001266347
98	0xbda52e52	-0.080654755
99	0x3cb537a1	0.022121252
100	0xbdccaef0	-0.09994304
101	0xbd8302c4	-0.06397012
102	0xbeaac9d3	-0.33357105
103	0xbe0c50e9	-0.1370274
104	0xbe18bba9	-0.14915337
105	0x3e953328	0.29140592
106	0x3ecd0b3e	0.4004764
107	0xbe71f918	-0.23630178
108	0x3d15f487	0.036610153
109	0xbb86ac85	-0.0041099214
110	0xbe6e7197	-0.23285519
111	0xbe8bfcc0	-0.2734127
112	0xbe11c007	-0.14233409
113	0x3d958927	0.0730155
114	0xbdd2b395	-0.10288159
115	0x3e9d248f	0.30691954
116	0x3c87da58	0.016583607
117	0xbe53b229	-0.20673431
118	0x3e10b409	0.14131178
119	0xbd95eb4b	-0.07320269
120	0xbe84f6cd	-0.25969544
121	0xbe04ac0c	-0.12956256
122	0x3e000499	0.12501754
123	0x3dc3de0b	0.09563836
124	0xbe523982	-0.2052975
125	0x3d0ec57f	0.034856316
126	0xbdfae6e7	-0.122510724
127	0xbd47c3b7	-0.048770633
128	0x3db5231a	0.08844586
129	0xbeab253f	-0.33426854
130	0x3da971e1	0.08273674
131	0x3e01bf0f	0.1267054
132	0xbd0c822b	-0.034303825
133	0x3e638be2	0.2222133
134	0x3dbbfb6c	0.09178814
135	0xbca0b71c	-0.019618563
136	0xbc123356	-0.008923372
137	0xbe10534c	-0.14094275
138	0xbb8cb65e	-0.004294201
139	0xbe9af778	-0.3026693
140	0x3da1ccff	0.07900428
141	0xbd6224fc	-0.055211052
142	0xbee92b69	-0.45540932
143	0xbe6bd5b1	-0.23030736
144	0x3d0a1b58	0.033717483
145	0x3e98f593	0.29874858
146	0x3e295755	0.16537221
147	0xbe6aff56	-0.22948965
148	0xbe9e48a4	-0.30914795
149	0xbdb6360b	-0.08897027
150	0xbe54b567	-0.20772325
151	0xbd6798a0	-0.05654204
152	0xbe800e1e	-0.2501077
153	0xbda301bd	-0.07959316
154	0x3e32dda5	0.17467363
155	0xbd8fe696	-0.07026403
156	0xbcad68e8	-0.021168187
157	0x3e25bd10	0.16185403
158	0xbe1f5762	-0.15560678
159	0xbdd04318	-0.10169047
160	0xbdc1d851	-0.09465087
161	0xbe044a33	-0.1291893
162	0xbd820c5f	-0.06350016
163	0x3dab6b46	0.0837007
164	0xbc19e03e	-0.009391842
165	0x3e242bca	0.16032329
166	0xbd50ef82	-0.051009662
167	0xbe2d1b80	-0.16905022
168	0x3dcbefe5	0.099578656
169	0xbf15a5d3	-0.5845615
170	0xbc8b4c33	-0.017004108
171	0xbe16e8b4	-0.14737207
172	0xbba94851	-0.0051660915
173	0xbe38a55f	-0.18031834
174	0xbd5800d5	-0.05273517
175	0xbd9c29e6	-0.07625179
176	0xbef0f541	-0.47062114
177	0xbdac4ce3	-0.084131025
178	0xbde71e51	-0.11285079
179	0x3d9d780a	0.07688911
180	0xbeb512b9	-0.35365847
181	0x3e091583	0.13387112
182	0x3bc73315	0.0060790875
183	0x3df7fd27	0.12108832
184	0xbd2d3858	-0.04229006
185	0xbdcc2528	-0.099680245
186	0x3e8d9c05	0.27658096
187	0x3e969f7b	0.2941855
188	0xbdd49ffa	-0.103820756
189	0xbe19fc20	-0.15037584
190	0x3e70b0ae	0.23504898
191	0xbd8b589d	-0.06804011
192	0xbc394624	-0.011308227
193	0xbdce7549	-0.10080964
194	0xbb160d38	-0.0022896063
195	0xbeaf2443	-0.34207353
196	0xbdbe6509	-0.09296615
197	0xbe0994ff	-0.13435744
198	0xbe9c12c2	-0.3048306
199	0xbcf415a6	-0.029795479
200	0xbcb30c3c	-0.02185642
201	0x3da4c9c2	0.08046295
202	0xbeea3fda	-0.4575184
203	0x3df57ffc	0.11987302
204	0xbe070c03	-0.13188176
205	0x3bfaaa84	0.0076497216
206	0x3d4243c0	0.047427893
207	0xbd95795e	-0.072985396
208	0xbd35feca	-0.04443244
209	0xbe8df60d	-0.27726784
210	0xbcba6acf	-0.022756008
211	0xbe47a4eb	-0.19496505
212	0x3c650b51	0.013979749
213	0x3892ba5a	6.996533e-05
214	0xbea0e9cb	-0.3142837
215	0xbe0e05d0	-0.13869405
216	0xbd312fc5	-0.043258447
217	0x3df91ada	0.12163325
218	0x3d9901b0	0.07471025
219	0xbd9ba953	-0.076006554
220	0x3ca038a0	0.01955825
221	0xbe871281	-0.26381305
222	0xbdb87309	-0.09006316
223	0x3ccb0140	0.02478087
224	0x3d5cb0ed	0.053879667
225	0x3e11895b	0.14212553
226	0x3d3b9ee3	0.045805823
227	0x3dfb5ecc	0.122739404
228	0xbe903321	-0.28164008
229	0xbe03f7ff	-0.12887572
230	0x3f86828e	1.0508592
231	0xbda59e5a	-0.08086844
232	0xbeb4a122	-0.35279185
233	0x3cfaf95b	0.03063648
234	0x3e37f274	0.17963582
235	0xbd97edd3	-0.07418408
236	0x3d16ddde	0.036832683
237	0x3dd13626	0.10215406
238	0xbd9061bb	-0.070498906
239	0xbe3dbb86	-0.18528566
240	0x3c984d80	0.018591642
241	0xbe1cb5df	-0.15303753
242	0xbd8709a6	-0.06593637
243	0x3e04c9eb	0.1296765
244	0x3d503d5f	0.050839778
245	0xbe9001dd	-0.28126422
246	0xbe5faa89	-0.21842398
247	0x3d743794	0.059623316
248	0xbe8a8ce9	-0.2706063
249	0xbda9b660	-0.082867384
250	0xbddca3ed	-0.10773454
251	0xbce2cdb2	-0.027685974
252	0xbeb34246	-0.350115
253	0x3e0ff622	0.14058736
254	0x3cf12d7a	0.02944063
255	0x3e0ecbdf	0.13944958

fc2.bias f4 [64]
0	0x3cd3d1bd	0.025856847
1	0xbd8880b2	-0.06665172
2	0xbc8d3fa0	-0.017242253
3	0x3d063829	0.032768402
4	0x3e5987c7	0.21243201
5	0xbe13e58b	-0.14443032
6	0xbda049ac	-0.07826552
7	0x3d6c0d6b	0.057629984
8	0x3e653c8d	0.2238638
9	0x3ed33b70	0.41256285
10	0xbda698be	-0.08134602
11	0x3df9ad28	0.1219123
12	0x3e04143b	0.12898342
13	0xbdd4ad07	-0.10384565
14	0xbda6527f	-0.08121204
15	0x3df10c72	0.11769952
16	0x3e6e3542	0.23262504
17	0xbdc00390	-0.093756795
18	0xbd9c39dc	-0.07628223
19	0x3e244317	0.16041218
20	0x3e7b6ead	0.24553938
21	0x3ebc8826	0.36822623
22	0xbe7124e8	-0.23549235
23	0xbd5afbaf	-0.05346268
24	0xbdb470b3	-0.08810558
25	0xbe206196	-0.15662226
26	0x3d980d8f	0.07424461
27	0xbda823cd	-0.082099535
28	0x3d23ffed	0.04003899
29	0x3d5b7dde	0.053586833
30	0x3dae01cf	0.08496439
31	0xbd011812	-0.031517096
32	0x3cb4e028	0.022079542
33	0x3de84cc8	0.1134277
34	0xbc4cce81	-0.012500406
35	0xbdbf427d	-0.093388535
36	0xbd1089fa	-0.035287835
37	0xbdf0335d	-0.11728547
38	0x3d6dde0a	0.05807308
39	0xbbbd8d27	-0.005784649
40	0xbd68a8a9	-0.05680147
41	0x3ee7b254	0.4525324
42	0x3eb08e8f	0.34483764
43	0xbda57881	-0.08079625
44	0x3d4791c0	0.048722982
45	0xbdcadcf7	-0.09905427
46	0x3e930b72	0.2871967
47	0xbdde9d75	-0.10869876
48	0x3d266b53	0.040629696
49	0xbdf4002a	-0.11914094
50	0xbd0dd996	-0.034631334
51	0x3ece4235	0.40284887
52	0x3d3dc672	0.04633183
53	0xbe2a8b4b	-0.16654699
54	0x3db7c381	0.08972836
55	0xbd9e7234	-0.07736626
56	0xbe19f6f1	-0.15035607
57	0xbe056e11	-0.13030268
58	0xbdf44a6a	-0.11928256
59	0x3b356c9b	0.0027683142
60	0x3d8711ce	0.06595193
61	0x3e2e31a8	0.1701113
62	0xbaeffec6	-0.0018310181
63	0xbd5d1c22	-0.053981908

fc3.weight f4 [4, 64]
0	0x3e887b37	0.26656505
1	0x3e15a49e	0.14613578
2	0x3e34b101	0.17645647
3	0x3e8242a8	0.2544148
4	0x3e51b1e7	0.2047802
5	0xbddb4941	-0.107073314
6	0x3eb20646	0.3477041
7	0xbe20c249	-0.15699114
8	0x3e01eb32	0.12687376
9	0x3e04649f	0.12929009
10	0xbe0f78f6	-0.14010987
11	0xbe68bb5f	-0.22727726
12	0x3da397cd	0.07987938
13	0xbcfd13d4	-0.030893244
14	0x3df132ee	0.11777292
15	0xbe53df1d	-0.2069058
16	0x3e09eedd	0.13470025
17	0xbece4257	-0.40284988
18	0xbe19fd35	-0.15037997
19	0x3e2197ee	0.15780613
20	0x3d8fa0e2	0.07013108
21	0x3df8262b	0.12116655
22	0xbd33710a	-0.043808974
23	0xbe287bc0	-0.16453457
24	0xbd3200d3	-0.043457817
25	0xbebca53e	-0.3684482
26	0xbe41bf49	-0.18920626
27	0xbd2f00d3	-0.042725395
28	0x3e7de452	0.24794129
29	0x3f056998	0.5211425
30	0xbea21704	-0.31658185
31	0x3d780949	0.06055573
32	0x3e92a45a	0.28641015
33	0x3e56d634	0.2098015
34	0x3d09caf2	0.03364081
35	0xb92f88eb	-0.00016740306
36	0x3e6eae89	0.23308767
37	0xbe869bf2	-0.26290852
38	0xbb40e814	-0.0029435204
39	0x3e73aa73	0.2379549
40	0xbeaf5ad3	-0.3424898
41	0x3e124055	0.14282353
42	0x3e1a987c	0.1509723
43	0xbdaa9999	-0.08330078
44	0x3ed10b0e	0.40828747
45	0x3cf2dee6	0.029647302
46	0x3e49d490	0.19709992
47	0x3ee4ebca	0.44711143
48	0xbc088314	-0.008332033
49	0x3e42c73b	0.19021313
50	0x3e9f59ea	0.31123286
51	0x3e12416f	0.14282773
52	0x3e6d6fa0	0.23187113
53	0xbd796394	-0.06088598
54	0x3da4a500	0.08039284
55	0xbd9dc7bd	-0.07704113
56	0xbed5705f	-0.41687295
57	0x3dae9a8a	0.0852557
58	0xbe26b640	-0.1628046
59	0x3df44ae9	0.119283505
60	0x3c9d9fc4	0.019241221
61	0x3e2fe0f5	0.17175658
62	0xbdbc5d1e	-0.09197448
63	0x3e09fff6	0.13476548
64	0x3e8c1203	0.27357492
65	0x3e5dce41	0.21660711
66	0x3e29a940	0.1656847
67	0x3efea79a	0.49737245
68	0x3e0e11f2	0.13874033
69	0x3dbd4de6	0.092433736
70	0x3e94391b	0.28949818
71	0xbd1d3e1e	-0.038389318
72	0x3d8bca57	0.06825703
73	0x3e25811d	0.16162534
74	0xbe60a95f	-0.2193961
75	0xbda84b56	-0.08217494
76	0x3d9daa6a	0.076985195
77	0x3e8ea5b6	0.27860802
78	0x3e871bc1	0.26388362
79	0x3d32a829	0.0436174
80	0x3d107dd3	0.035276245
81	0x3e8c46e1	0.27397826
82	0xbe88c0c5	-0.2670957
83	0x3e28d97e	0.16489217
84	0x3e14b406	0.14521798
85	0x3e40518b	0.18781106
86	0xbd96a090	-0.073548436
87	0xbe04b141	-0.12958242
88	0x3d3609d9	0.044442985
89	0xbd33bcc5	-0.043881197
90	0xbe38a132	-0.18030241
91	0xbe87d51e	-0.26529783
92	0x3d5d9bbc	0.054103598
93	0x3ebb4857	0.36578628
94	0xbe02214d	-0.12708016
95	0x3e3b751b	0.18306391
96	0x3e00d655	0.12581761
97	0x3e708639	0.23488702
98	0x3e308e98	0.17241895
99	0xbd739924	-0.05947222
100	0x3e74ea4a	0.23917499
101	0xbe8f1e26	-0.2795269
102	0x3e8be2d1	0.27321485
103	0x3e601623	0.21883444
104	0x3daae640	0.08344698
105	0x3e29d56a	0.16585317
106	0x3d48e548	0.049046785
107	0x3e43cd40	0.19121265
108	0x3f07cc18	0.530458
109	0xbd7470d4	-0.059677914
110	0x3e42cf93	0.19024496
111	0x3ef6d980	0.48212814
112	0x3daffdbf	0.0859332
113	0x3e0aa46d	0.13539286
114	0x3e62348a	0.22090355
115	0x3dae8485	0.0852137
116	0x3e80e630	0.2517562
117	0xbdc292c7	-0.09500652
118	0x3e00e376	0.1258677
119	0xbd6285d5	-0.055303413
120	0xbe4bbbb2	-0.19895819
121	0xbf0fce8c	-0.5617454
122	0xbe4a0540	-0.19728565
123	0x3d5fafe5	0.054611105
124	0xbe52fbea	-0.2060391
125	0x3da3cc4a	0.079979494
126	0xbe465eaa	-0.19372049
127	0x3e12b197	0.14325558
128	0x3eb07560	0.3446455
129	0x3ecb4447	0.3970053
130	0x3e89305d	0.2679471
131	0x3f1a3f7f	0.6025314
132	0x3ddba6be	0.10725163
133	0x3e067f62	0.1313453
134	0x3eb4b83a	0.35296804
135	0x3dae0e17	0.08498781
136	0x3db27920	0.08714509
137	0x3df1c30d	0.11804781
138	0xbe9801e5	-0.29688945
139	0x3e9680cd	0.29395142
140	0x3e3b2506	0.18275842
141	0xbec8f36f	-0.39248225
142	0xbe131ee8	-0.14367259
143	0x3e23bfb9	0.15991105
144	0x3d8135c6	0.063090846
145	0x3b1909e9	0.0023351854
146	0x3d483c22	0.048885472
147	0x3db18f98	0.086699665
148	0x3dd6916d	0.104769565
149	0x3e63e933	0.22256927
150	0xbe17016b	-0.14746635
151	0x3d61f325	0.05516352
152	0x3edf874b	0.43657908
153	0xbd089048	-0.033340722
154	0xbd50389b	-0.050835233
155	0xbe2a890f	-0.16653846
156	0x3e932c88	0.28744912
157	0x3e9a2aae	0.30110687
158	0xbe656cf5	-0.22404845
159	0x3cd6e6e9	0.026233153
160	0x3dae9177	0.08523839
161	0x3def924c	0.11697826
162	0x3e4c1bc2	0.19932464
163	0x3dc8c4eb	0.09803184
164	0x3e132ab5	0.1437176
165	0xbe8c5cc3	-0.27414522
166	0xbe922a10	-0.28547716
167	0x3e094611	0.13405634
168	0xbea3759f	-0.31925675
169	0x3e3f1fa3	0.18664412
170	0x3e226892	0.15860203
171	0x3d5ec453	0.054386448
172	0x3d5e9f2b	0.054351013
173	0x3d81078c	0.063002676
174	0x3e2574ab	0.16157787
175	0x3f0875e8	0.5330491
176	0x3d8882c8	0.066655695
177	0x3ecf1d15	0.40451875
178	0x3e1c238f	0.1524794
179	0x3e51b740	0.2048006
180	0x3d384660	0.04498899
181	0x3ddd2224	0.107975274
182	0x3e0b57fe	0.13607785
183	0x3dd0be28	0.101925194
184	0xbeb776d9	-0.3583286
185	0xbe1b442e	-0.15162727
186	0xbdc01629	-0.09379227
187	0x3d4baf66	0.04972782
188	0xbe658161	-0.22412635
189	0x3d9371d4	0.07199445
190	0xbeafa528	-0.34305692
191	0xbcfbae65	-0.030722806
192	0x3ed0086f	0.40631434
193	0x3f1bda6f	0.6088018
194	0x3d15cd8a	0.03657297
195	0xbd9eeb86	-0.07759766
196	0x3d88b1ae	0.06674515
197	0xbe56276c	-0.20913476
198	0x3ea7e794	0.32793868
199	0x3d3cd2e3	0.046099555
200	0x3e4a0a46	0.19730482
201	0x3e37988a	0.17929283
202	0xbd915822	-0.07096888
203	0xbe43c98a	-0.1911985
204	0x3e2b88a0	0.16751337
205	0xbecdf67f	-0.40227124
206	0x3ef3155f	0.47477242
207	0x3d86d89e	0.06584285
208	0x3e2779a4	0.16354996
209	0x3c390770	0.011293277
210	0xbe84813d	-0.2587985
211	0x3e39676e	0.18105862
212	0x3d884362	0.06653477
213	0x3e6a7619	0.22896613
214	0xbe18a3d9	-0.14906253
215	0x3e057402	0.13032535
216	0x3e5605b3	0.20900612
217	0xbdb611a1	-0.08890081
218	0xbe917730	-0.28411245
219	0x3dc5c61a	0.096569255
220	0x3db886ef	0.090101115
221	0x3e072024	0.13195854
222	0xbe0a9fce	-0.13537523
223	0x3de31a0c	0.110889524
224	0x3e876c25	0.26449695
225	0x3e2c4ecf	0.16826938
226	0x3dc71095	0.0971996
227	0x3c7e8003	0.01553345
228	0x3c16cb7f	0.009203791
229	0xbdf1af0c	-0.11800966
230	0x3e9967e3	0.29962072
231	0x3ee4fec2	0.44725615
232	0xbe28ff97	-0.1650375
233	0x3e2ffc7a	0.17186156
234	0x3e0e009e	0.13867423
235	0xbe822087	-0.2541544
236	0x3f12d001	0.5734864
237	0xbe985512	-0.29752403
238	0x3e14b83a	0.14523402
239	0x3e0918a2	0.13388303
240	0x3d8fcf3d	0.070219494
241	0x3d1720a3	0.03689636
242	0x3e67aac2	0.22623733
243	0x3e0587f0	0.13040137
244	0x3e1c54c2	0.15266708
245	0xbe6a73c7	-0.22895728
246	0x3d9a3265	0.07529143
247	0x3e4e4a79	0.20145597
248	0xbe3c222d	-0.18372412
249	0xbdf4280e	-0.11921702
250	0xbeba5f34	-0.3640076
251	0xbde1c27b	-0.11023422
252	0xbef6179b	-0.48064885
253	0x3d45cb33	0.04828949
254	0xbdad0411	-0.08448041
255	0x3e84f00a	0.25964385

fc3.bias f4 [4]
0	0x3e9ad767	0.30242464
1	0x3e8b0d60	0.27158642
2	0x3e0f8015	0.14013703
3	0x3e2933b3	0.16523628
